photopipe/photometry/dependencies/all_models.npy (npy, 10384 bytes, 1 tensors)

array f8 [92, 14]
000000 00 00 00 00 00 00 00 00 a4 58 f7 d4 93 d3 ab 40
       0.0 3561.7887341781334
000010 4f c3 88 4b df 6e b2 40 52 3f 3e c9 31 29 b8 40
       4718.872246310885 6185.194476976832
000020 df 29 ce 44 b4 4b bd 40 c5 e5 d0 81 be 80 c1 40
       7499.704174885962 8961.488336670105
000030 60 1e 28 d1 e4 b5 c3 40 9a 67 d3 a5 ec 21 b1 40
       10091.787632956344 4385.924405300897
000040 08 6e 9c 21 8e 72 b5 40 6a 9a 25 2f ea 63 b9 40
       5490.555200363982 6499.91478190441
000050 97 0d 90 16 1b cc be 40 b0 58 f4 5d 43 3d c8 40
       7884.105813029592 12410.52630476313
000060 48 72 62 8b 6a 20 d0 40 ee ba bd 87 14 26 d5 40
       16513.664757358172 21656.320784981297
000070 00 00 00 00 00 00 f0 3f 70 b6 21 c6 e3 f6 e9 bf
       1.0 -0.8113879079589434
000080 40 64 50 1d 41 a5 d5 bf 80 8b 87 ca 57 23 d0 3f
       -0.3382113252897092 0.25215716150540146
000090 40 ff 7f 9c 51 21 e4 3f 00 f1 53 33 ed 14 ef 3f
       0.629067235626259 0.9713045122621509
0000a0 f0 91 0f 6b c2 ec f2 3f 40 f9 23 ae 28 ab d8 bf
       1.182802599150019 -0.38544671064291336
0000b0 00 d8 36 58 58 1a 72 bf 40 96 52 ef af 33 c2 3f
       -0.0044196558914588735 0.14220236955331877
0000c0 c0 79 fb 3b 89 d7 d4 3f 80 53 be d5 25 f3 e7 3f
       0.32565527780198167 0.7484311270405755
0000d0 40 29 bc f8 de 01 f0 3f 60 82 22 2b 97 91 f1 3f
       1.000456782933341 1.0980445561364363
0000e0 00 00 00 00 00 00 24 40 00 5e 32 48 2b a7 ef 3f
       10.0 0.989156380662223
0000f0 00 0a 0f 14 08 2e b5 bf 00 b0 90 30 2d 1a bf 3f
       -0.08273363580432402 0.1214931720321033
000100 00 c2 71 05 40 8f d2 3f 40 89 b9 41 b6 b7 db 3f
       0.2899932912032739 0.43308788698609035
000110 60 ee 60 24 2a 89 e0 3f 00 dc 94 08 94 76 9d 3f
       0.5167437277336369 0.02877265264870843
000120 00 e0 8c e0 b6 7e 5d bf 00 c4 91 55 23 c1 9d bf
       -0.0018002305898345838 -0.029057075593701853
000130 00 9d 05 73 dc e6 b3 bf 00 56 45 df 83 ac a1 3f
       -0.07774141128685486 0.03451931095575489
000140 80 48 57 90 0f 3e c4 3f 80 9e ae 81 bb b2 c1 3f
       0.15814394519708586 0.13826698143133243
000150 00 00 00 00 00 00 59 40 fc bd 8f 7c 0a cb 0a 40
       100.0 3.3491410952917686
000160 c0 e0 5b b5 ed 26 e7 3f 20 d8 0f 97 ca d1 d9 bf
       0.7235020200887661 -0.4034296488965783
000170 70 84 2a e3 24 49 00 c0 e0 95 c8 79 17 c5 07 c0
       -2.035714888319994 -2.971236182626612
000180 c0 f9 eb d3 a5 38 0b c0 40 dd 71 aa ab fb f4 3f
       -3.4026600414647135 1.3114430101393992
000190 00 0c 5e f8 f9 79 84 3f a0 14 7f 41 e6 f9 f1 bf
       0.009998276607580792 -1.1235106047109085
0001a0 a0 88 93 e2 99 4d 06 c0 04 30 ed ac 59 aa 12 c0
       -2.7878911687158308 -4.666357709862499
0001b0 d4 af e8 fe d7 7a 16 c0 ac d5 9f 0f c6 76 17 c0
       -5.619964583351209 -5.865989917879613
0001c0 00 00 00 00 00 40 59 40 8c 1b af bd 64 6c 08 40
       101.0 3.052926523119316
0001d0 20 aa 05 a7 b8 d3 e5 3f 20 50 ca 94 68 8c db bf
       0.6820948850775643 -0.43044485597897797
0001e0 50 ae 31 44 98 58 03 c0 20 aa 89 03 3e da 0c c0
       -2.418259175077573 -3.606563594473542
0001f0 3c fb ff c2 dd c8 10 c0 98 87 ca e4 7d f7 f3 3f
       -4.196158453821052 1.2479227959779333
000200 00 3c 2c 23 9f b0 85 3f d0 4f 07 fc 0a 68 f5 bf
       0.010590785275352843 -1.3379011006227195
000210 d8 46 f7 58 25 e9 09 c0 c0 e5 5a 04 4c 3e 16 c0
       -3.2388407659972067 -5.560836856887761
000220 50 89 47 2c d4 50 1a c0 10 cd 95 bb e2 48 1b c0
       -6.57893437563537 -6.821177416818742
000230 00 00 00 00 00 80 59 40 c0 c7 61 bb 5b 21 03 40
       102.0 2.391288246079938
000240 f0 1d c3 1c 42 36 e4 3f 60 f8 76 fa b3 10 e1 bf
       0.6316233217011682 -0.5332889453782279
000250 60 c7 4f 82 08 27 07 c0 64 fa c3 b9 2a ed 11 c0
       -2.894059198436409 -4.481608297907403
000260 88 1d 40 bc b4 01 15 c0 90 f4 dd cd 18 b9 f1 3f
       -5.251666013158122 1.10768967072298
000270 00 10 54 3a 51 55 8b 3f b0 8a 7a 53 72 a5 fa bf
       0.01334632357839638 -1.6653922329793822
000280 38 ff 28 70 54 94 0e c0 50 5c 20 e3 2a 1a 1b c0
       -3.8224266779433513 -6.775554226732382
000290 ac e0 04 31 03 4d 1f c0 48 2a 60 fe 12 25 20 c0
       -7.8252074870326105 -8.072410535086547
0002a0 00 00 00 00 00 c0 59 40 08 2e 69 95 c8 82 ff 3f
       103.0 1.9694295727121034
0002b0 b0 5e 38 90 31 58 e6 3f 20 89 ff 68 93 cf e4 bf
       0.6982658211517982 -0.6503388453241179
0002c0 68 42 80 10 18 c2 08 c0 00 4d 8d 95 e7 89 14 c0
       -3.094772461809317 -5.134672486066165
0002d0 70 e7 6a 0a 2c e2 18 c0 f0 7a 04 8f 7b e3 f2 3f
       -6.220871126913934 1.1805377565976265
0002e0 00 a4 38 75 2d 32 92 3f c0 af d0 91 d7 b2 fd bf
       0.017769537238709887 -1.8561626144319092
0002f0 84 a9 f5 76 3f 7b 10 c0 a0 cb e3 8b 97 1d 20 c0
       -4.120359286064176 -8.057796832615907
000300 0c 79 e5 82 db 2f 22 c0 fe 4e fc da ed bf 22 c0
       -9.093471613418409 -9.37486156778277
000310 00 00 00 00 00 00 5a 40 80 d6 22 fc 9c ad fd 3f
       104.0 1.8548860405984726
000320 e0 4e 05 dc dc 55 e5 3f f0 3a 39 ca 32 1f e0 bf
       0.6667312905578591 -0.503808398216135
000330 38 9c c2 fe bc ec 06 c0 14 eb 7c bb a9 99 13 c0
       -2.8655948546543435 -4.900061540126234
000340 50 03 a6 d9 d0 13 18 c0 78 f5 95 9f f3 fb f2 3f
       -6.019351387746454 1.1865116342372328
000350 00 84 e9 14 ad 81 8d 3f 70 9f ae 20 b8 1a fb bf
       0.014407493782700342 -1.6940232540746045
000360 00 10 60 ec 67 0f 0f c0 12 77 c0 0c 00 23 20 c0
       -3.8825224367919873 -8.068359755033757
000370 4c f2 eb 65 82 04 22 c0 48 86 c7 c4 7a ac 22 c0
       -9.008807358791408 -9.336874150615714
000380 00 00 00 00 00 40 5a 40 90 d9 57 af bd bf f9 3f
       105.0 1.6093117570249866
000390 e0 00 8a 79 97 7f e1 3f e0 3d 33 1f 6e a4 d6 bf
       0.5468251584825587 -0.3537860207261172
0003a0 80 53 9e 52 95 5a 07 c0 b8 af b1 cf 4f a2 14 c0
       -2.919230123001796 -5.158507580967061
0003b0 fc a1 0d 45 84 46 19 c0 08 34 b8 b1 54 a4 f0 3f
       -6.3188639440127155 1.040119833199471
0003c0 00 94 e9 55 97 ae 86 3f b0 fa e3 28 50 25 fb bf
       0.011075193700159858 -1.6966096493994591
0003d0 a0 ab 78 1c 3d 03 10 c0 da 60 9f d2 3b bd 20 c0
       -4.003162808289659 -8.369597036319124
0003e0 72 45 c9 3d a8 58 22 c0 d4 f1 08 06 92 2e 23 c0
       -9.173158579653975 -9.59095782145679
0003f0 00 00 00 00 00 00 26 40 10 da 9b ab 8d 7d f0 3f
       11.0 1.0306526854961966
000400 00 d5 11 e2 d5 e6 a2 bf 00 fa bb 3b 94 d4 b8 3f
       -0.03691738495482788 0.09699369867664842
000410 c0 0d 0e 16 a6 61 cf 3f 20 a8 b9 45 f8 08 d9 3f
       0.2451675040903023 0.3911724739942901
000420 00 6c b4 e7 35 88 de 3f 00 fe 99 12 7c 05 b7 3f
       0.4770636332265781 0.08992743925227131
000430 00 00 c5 3c 6d da 54 bf 00 da 84 95 7a 08 ae bf
       -0.0012727801104830405 -0.05865843844587815
000440 80 fa fc 9d f8 8d c0 bf 00 26 2c ea 74 8f 92 bf
       -0.12933261598842094 -0.018125368874313708
000450 80 45 7b 10 3c e9 c1 3f c0 91 bb e3 f9 b8 c0 3f
       0.13993025593530817 0.130645023534397
000460 00 00 00 00 00 00 28 40 00 54 66 83 ab fb f1 3f
       12.0 1.1239428646852048
000470 00 e0 e0 90 11 0b 75 3f 80 dd 58 5d dc 8b b6 3f
       0.005137508980673999 0.0880716064356104
000480 40 b0 a7 d8 e7 33 c9 3f 40 96 b4 4d 66 ab d2 3f
       0.19689653471812285 0.29171140278262797
000490 80 d6 b2 f5 14 72 d6 3f c0 ce ab 05 62 c3 c3 3f
       0.35071300500872127 0.15440011288557365
0004a0 00 e0 76 46 1b d3 50 bf 00 42 f7 60 04 1c b3 bf
       -0.0010268942222477762 -0.07464625708895056
0004b0 80 b7 9a 37 4b 69 c7 bf 40 11 68 ed 5e d4 d1 bf
       -0.18290081229264032 -0.27858708557348066
0004c0 c0 84 a0 f6 4c 22 d6 bf 00 c1 4c 73 5f 15 d8 bf
       -0.3458435448138282 -0.3763044954275898
0004d0 00 00 00 00 00 00 2a 40 20 76 65 eb f7 95 f2 3f
       13.0 1.1616133876008305
0004e0 00 ec 29 0a c9 a7 a1 3f 00 4f f9 17 cf 30 a4 3f
       0.03448322533673576 0.03943488280915908
0004f0 80 cc 96 76 cb 60 bf 3f 00 3d 9e 1a 07 7f c9 3f
       0.12257072110405609 0.19918907928192908
000500 00 f7 f3 7e e4 77 cc 3f c0 26 ee b5 74 30 ca 3f
       0.22240883063198424 0.2046037567454757
000510 00 00 3a c9 6c 76 29 bf 00 bc d7 97 93 91 c0 bf
       -0.00019426420168500158 -0.1294426433009619
000520 60 05 bb 6f 15 0b d1 bf 80 6a 46 a3 ef 9d d6 bf
       -0.26630149756609534 -0.3533896536334069
000530 20 14 13 96 13 57 dd bf a0 a4 9a 32 eb 39 e0 bf
       -0.4584397283145467 -0.5070701588021116
000540 00 00 00 00 00 00 2c 40 80 36 72 f2 4a 10 f3 3f
       14.0 1.1914777250816826
000550 80 0a e4 4e b9 6a ba 3f 00 1c 4f a2 a3 3c 84 bf
       0.10319097686810075 -0.009881285086420277
000560 00 60 c7 cf 2a c3 5c 3f 00 c1 df cc 00 32 b7 3f
       0.0017555158693678408 0.0906067371540793
000570 00 eb 2a f2 f1 c1 bf 3f 00 b7 e2 5a 10 a9 d3 3f
       0.1240531173925028 0.30719384074733114
000580 00 40 e0 c2 47 1d 48 3f 80 f0 d2 a0 ce c9 c8 bf
       0.0007359123608257079 -0.19365866520627506
000590 40 0f 2c 48 2c ba d9 bf 00 1b f1 9b 94 b7 e0 bf
       -0.4019880966954936 -0.5224097295511854
0005a0 d0 f9 b9 1d 4e f8 e4 bf 50 35 00 03 28 40 e6 bf
       -0.6553106861682014 -0.6953315790757788
0005b0 00 00 00 00 00 00 2e 40 08 a2 ff 91 75 6e f3 3f
       15.0 1.2144675925320616
0005c0 80 43 a3 c6 f1 b3 c4 3f 00 4d b3 5c 47 16 a3 bf
       0.16174146842106651 -0.03727934843632319
0005d0 00 ca 03 cc 50 68 b0 bf 00 47 45 0b d5 54 aa bf
       -0.06409172993497947 -0.05142846834736581
0005e0 00 40 d6 0e ba 1f 94 bf 60 28 71 54 2d a0 d9 3f
       -0.019652278094838493 0.4004014324788212
0005f0 00 80 51 09 08 8c 54 3f 40 9e 05 d6 1b 3b cd bf
       0.0012540892105548096 -0.22836635542192774
000600 c0 0d 10 22 77 b2 de bf 10 b9 c5 6d b5 e1 e2 bf
       -0.4796426613467837 -0.5900523323050795
000610 80 96 fe 4c 64 74 e3 bf 30 20 06 c5 14 39 e4 bf
       -0.6079579833792224 -0.631967911541329
000620 00 00 00 00 00 00 30 40 c8 fc 85 a1 7d a3 f3 3f
       16.0 1.2274147328860625
000630 40 68 08 e4 94 ec c9 3f 00 c3 0b 59 89 c9 b0 bf
       0.20253239759841968 -0.06557520317052123
000640 00 97 2c cb ba 94 b8 bf 80 46 91 4b 8b 5f b5 bf
       -0.09601943455035311 -0.08348913760098675
000650 00 c0 cb 73 84 49 a9 bf 80 46 9a 88 54 b0 dd 3f
       -0.04938901818775321 0.4638873418817653
000660 00 20 70 59 04 50 5d 3f 00 70 e5 24 98 7d d0 bf
       0.0017890970682419294 -0.2576656685175749
000670 c0 22 6c 88 a8 93 e0 bf 30 d0 cb a1 76 4b ea bf
       -0.5180246986866095 -0.8217118415909734
000680 90 a9 40 af 6c 43 f0 bf c0 fe a2 2f aa c0 f0 bf
       -1.0164610715679352 -1.0470373020943242
000690 00 00 00 00 00 00 31 40 b8 d8 cd 64 35 9e f2 3f
       17.0 1.163625139013261
0006a0 80 d2 21 a4 31 ac c9 3f 80 c3 c3 47 df 0e b2 bf
       0.20056744112266145 -0.07053943159168163
0006b0 00 d8 a2 5d 8c 0b bd bf 00 46 98 11 f4 21 b3 bf
       -0.11345746313131144 -0.07473683766900052
0006c0 00 9a e1 43 0d 87 a0 bf e0 f6 02 3c b7 a2 dc 3f
       -0.032280363594328065 0.4474313818026143
0006d0 00 40 5a 40 c3 01 60 3f 60 37 d1 73 72 19 d1 bf
       0.0019539655211886497 -0.26717816648748816
0006e0 f0 10 79 71 a3 f0 e0 bf 80 e4 ce f6 1b b6 e8 bf
       -0.5293748108165612 -0.7722301311943198
0006f0 90 6d 30 0c b8 e1 ef bf 60 95 30 39 69 b1 f0 bf
       -0.9963035810537111 -1.0433132394767526
000700 00 00 00 00 00 00 32 40 98 7a 03 17 aa 7b f4 3f
       18.0 1.2801915072410903
000710 c0 46 b1 06 e3 e9 ca 3f 00 43 10 40 80 0e b5 bf
       0.21026265932828458 -0.08225251735735739
000720 80 0e 7a 88 4e 36 c4 bf 00 ed 53 80 55 9c c3 bf
       -0.15790731109528977 -0.1532084347344167
000730 00 82 ba 26 39 ee bf bf c0 9f 92 5f 2d 72 de 3f
       -0.12472874827881952 0.47571882565761925
000740 00 c0 33 17 ab f9 61 3f e0 b4 1f cd a4 48 d2 bf
       0.002194246446030945 -0.2856838229334482
000750 20 5e 4b 75 6a ad e2 bf 30 e2 04 d1 39 a3 ec bf
       -0.583668927279124 -0.8949250299838862
000760 a0 ad ec 2c 89 8b f1 bf e8 ef 12 61 31 1e f2 bf
       -1.0965663676132422 -1.1323713104202344
000770 00 00 00 00 00 00 33 40 e8 3a e6 c8 b9 f0 f5 3f
       19.0 1.3712709281568838
000780 c0 67 3e df 1e 4d ce 3f 00 29 5d a6 e4 1f ba bf
       0.23672853375029312 -0.1020491510545618
000790 40 51 67 50 f6 55 c9 bf 40 f8 0e de a4 38 ca bf
       -0.1979358570666907 -0.20485363810252188
0007a0 c0 9f ed 2c 77 1c d1 bf 70 c0 a4 6c 9f a5 e0 3f
       -0.26736239802857753 0.5202176210350569
0007b0 00 70 99 67 c4 86 65 3f 20 c7 7c 79 66 f2 d3 bf
       0.0026277385739330583 -0.311669939651539
0007c0 00 7e a0 8d 04 e2 e3 bf d0 03 48 8a dc f4 ed bf
       -0.6213400617743332 -0.9361403179938126
0007d0 70 be b0 55 02 3e f3 bf 08 38 03 79 a6 54 f4 bf
       -1.2026389453202704 -1.2706665732434903
0007e0 00 00 00 00 00 00 00 40 b0 47 84 64 ec e3 e6 bf
       2.0 -0.7153226817338147
0007f0 e0 ef 08 07 c0 43 d4 bf c0 54 32 49 03 7e d1 3f
       -0.3166351383877082 0.27331621311288856
